…
Step 20000   training accuracy: 0.6247222222222222
             test accuracy: 0.5948
Step 20500   training accuracy: 0.6276041666666666
             test accuracy: 0.6015
Step 21000   training accuracy: 0.62590625
             test accuracy: 0.5969
Step 21500   training accuracy: 0.6303432642487047
             test accuracy: 0.5988
Step 22000   training accuracy: 0.6403245192307693
             test accuracy: 0.6017
Step 22500   training accuracy: 0.6315
             test accuracy: 0.6043
Step 23000   training accuracy: 0.6388781055900621
             test accuracy: 0.6008
Finished training.
Model(
  (conv1): Conv2d(3, 5, kernel_size=(5, 5), stride=(1, 1))
  (pool): MaxPool2d(kernel_size=(2, 2), stride=(2, 2), padding=0, dilation=1, ceil_mode=False)
  (conv2): Conv2d(5, 10, kernel_size=(5, 5), stride=(1, 1))
  (conv3): Conv2d(10, 15, kernel_size=(5, 5), stride=(1, 1))
  (fc1): Linear(in_features=375, out_features=200, bias=True)
  (fc2): Linear(in_features=200, out_features=100, bias=True)
  (fc3): Linear(in_features=100, out_features=50, bias=True)
  (fc4): Linear(in_features=50, out_features=10, bias=True)
)
Model(
  (conv1): Conv2d(3, 5, kernel_size=(5, 5), stride=(1, 1))
  (pool): MaxPool2d(kernel_size=(2, 2), stride=(2, 2), padding=0, dilation=1, ceil_mode=False)
  (conv2): Conv2d(5, 10, kernel_size=(5, 5), stride=(1, 1))
  (conv3): Conv2d(10, 15, kernel_size=(5, 5), stride=(1, 1))
  (fc1): Linear(in_features=375, out_features=200, bias=True)
  (fc2): Linear(in_features=200, out_features=100, bias=True)
  (fc3): Linear(in_features=100, out_features=50, bias=True)
  (fc4): Linear(in_features=50, out_features=10, bias=True)
)
Output shape: torch.Size([2, 5, 14, 14])
Output logits:
[[[[1.19187284e+00 2.38080949e-01 8.55887413e-01 ... 1.37709928e+00
    8.20973158e-01 9.74980220e-02]
   [0.00000000e+00 4.38126385e-01 1.21606624e+00 ... 3.77364188e-01
    2.95074195e-01 4.11980897e-01]
   [6.31841183e-01 9.67683256e-01 3.68269056e-01 ... 1.06636493e-03
    4.89302993e-01 6.58116281e-01]
…
   [0.15077464 0.22611332 0.19065346 ... 0.13632591 0.19539084
    0.14562386]
   [0.135056   0.22304381 0.16565675 ... 0.16190971 0.17060746
    0.18800704]]

  [[0.11377917 0.22338259 0.2119259  ... 0.18242976 0.15020509
    0.16427709]
   [0.22418585 0.24906255 0.13253993 ... 0.25331843 0.11297213
    0.17903085]
   [0.22007774 0.23431762 0.17517143 ... 0.1826051  0.10539834
    0.29029655]
   ...
   [0.22450285 0.23068355 0.2084029  ... 0.14873238 0.22445843
    0.18616603]
   [0.1402536  0.24663411 0.12118851 ... 0.17787434 0.29003468
    0.2638553 ]
   [0.19276479 0.21868625 0.1906732  ... 0.16514416 0.2092576
    0.12478551]]]]
Model(
  (conv1): Conv2d(3, 5, kernel_size=(5, 5), stride=(1, 1))
  (pool): MaxPool2d(kernel_size=(2, 2), stride=(2, 2), padding=0, dilation=1, ceil_mode=False)
  (conv2): Conv2d(5, 10, kernel_size=(5, 5), stride=(1, 1))
  (conv3): Conv2d(10, 15, kernel_size=(5, 5), stride=(1, 1))
  (fc1): Linear(in_features=375, out_features=200, bias=True)
  (fc2): Linear(in_features=200, out_features=100, bias=True)
  (fc3): Linear(in_features=100, out_features=50, bias=True)
  (fc4): Linear(in_features=50, out_features=10, bias=True)
)
Model(
  (conv1): Conv2d(3, 5, kernel_size=(5, 5), stride=(1, 1))
  (pool): MaxPool2d(kernel_size=(2, 2), stride=(2, 2), padding=0, dilation=1, ceil_mode=False)
  (conv2): Conv2d(5, 10, kernel_size=(5, 5), stride=(1, 1))
  (conv3): Conv2d(10, 15, kernel_size=(5, 5), stride=(1, 1))
  (fc1): Linear(in_features=375, out_features=200, bias=True)
  (fc2): Linear(in_features=200, out_features=100, bias=True)
  (fc3): Linear(in_features=100, out_features=50, bias=True)
  (fc4): Linear(in_features=50, out_features=10, bias=True)
)
Output shape: torch.Size([2, 10, 5, 5])
Output logits:
[[[[… Output probabilities:
[[[[… Model(
  (conv1): Conv2d(3, 5, kernel_size=(5, 5), stride=(1, 1))
  (pool): MaxPool2d(kernel_size=(2, 2), stride=(2, 2), padding=0, dilation=1, ceil_mode=False)
  (conv2): Conv2d(5, 10, kernel_size=(5, 5), stride=(1, 1))
  (conv3): Conv2d(10, 20, kernel_size=(5, 5), stride=(1, 1))
  (fc1): Linear(in_features=500, out_features=200, bias=True)
  (fc2): Linear(in_features=200, out_features=100, bias=True)
  (fc3): Linear(in_features=100, out_features=50, bias=True)
  (fc4): Linear(in_features=50, out_features=10, bias=True)
)
Model(
  (conv1): Conv2d(3, 5, kernel_size=(5, 5), stride=(1, 1))
  (pool): MaxPool2d(kernel_size=(2, 2), stride=(2, 2), padding=0, dilation=1, ceil_mode=False)
  (conv2): Conv2d(5, 10, kernel_size=(5, 5), stride=(1, 1))
  (conv3): Conv2d(10, 20, kernel_size=(5, 5), stride=(1, 1))
  (fc1): Linear(in_features=500, out_features=200, bias=True)
  (fc2): Linear(in_features=200, out_features=100, bias=True)
  (fc3): Linear(in_features=100, out_features=50, bias=True)
  (fc4): Linear(in_features=50, out_features=10, bias=True)
)
Model(
  (conv1): Conv2d(3, 5, kernel_size=(5, 5), stride=(1, 1))
  (conv2): Conv2d(5, 10, kernel_size=(5, 5), stride=(1, 1))
  (conv3): Conv2d(10, 25, kernel_size=(5, 5), stride=(1, 1))
  (pool): MaxPool2d(kernel_size=(2, 2), stride=(2, 2), padding=0, dilation=1, ceil_mode=False)
  (fc1): Linear(in_features=500, out_features=200, bias=True)
  (fc2): Linear(in_features=200, out_features=100, bias=True)
  (fc3): Linear(in_features=100, out_features=50, bias=True)
  (fc4): Linear(in_features=50, out_features=10, bias=True)
)
Model(
  (conv1): Conv2d(3, 10, kernel_size=(5, 5), stride=(1, 1))
  (conv2): Conv2d(10, 20, kernel_size=(5, 5), stride=(1, 1))
  (conv3): Conv2d(20, 25, kernel_size=(5, 5), stride=(1, 1))
  (pool): MaxPool2d(kernel_size=(2, 2), stride=(2, 2), padding=0, dilation=1, ceil_mode=False)
  (fc1): Linear(in_features=500, out_features=200, bias=True)
  (fc2): Linear(in_features=200, out_features=100, bias=True)
  (fc3): Linear(in_features=100, out_features=50, bias=True)
  (fc4): Linear(in_features=50, out_features=10, bias=True)
)
Model(
  (conv1): Conv2d(3, 10, kernel_size=(5, 5), stride=(1, 1))
  (conv2): Conv2d(10, 20, kernel_size=(5, 5), stride=(1, 1))
  (conv3): Conv2d(20, 30, kernel_size=(5, 5), stride=(1, 1))
  (pool): MaxPool2d(kernel_size=(2, 2), stride=(2, 2), padding=0, dilation=1, ceil_mode=False)
  (fc1): Linear(in_features=500, out_features=200, bias=True)
  (fc2): Linear(in_features=200, out_features=100, bias=True)
  (fc3): Linear(in_features=100, out_features=50, bias=True)
  (fc4): Linear(in_features=50, out_features=10, bias=True)
)
Model(
  (conv1): Conv2d(3, 10, kernel_size=(3, 3), stride=(1, 1))
  (conv2): Conv2d(10, 20, kernel_size=(3, 3), stride=(1, 1))
  (conv3): Conv2d(20, 50, kernel_size=(3, 3), stride=(1, 1))
  (pool): MaxPool2d(kernel_size=(2, 2), stride=(2, 2), padding=0, dilation=1, ceil_mode=False)
  (fc1): Linear(in_features=500, out_features=200, bias=True)
  (fc2): Linear(in_features=200, out_features=100, bias=True)
  (fc3): Linear(in_features=100, out_features=50, bias=True)
  (fc4): Linear(in_features=50, out_features=10, bias=True)
)
Output shape: torch.Size([2, 50, 2, 2])
Output logits:
[[[[… Output probabilities:
[[[[… Model(
  (conv1): Conv2d(3, 10, kernel_size=(3, 3), stride=(1, 1))
  (conv2): Conv2d(10, 20, kernel_size=(3, 3), stride=(1, 1))
  (conv3): Conv2d(20, 50, kernel_size=(3, 3), stride=(1, 1))
  (pool): MaxPool2d(kernel_size=(2, 2), stride=(2, 2), padding=0, dilation=1, ceil_mode=False)
  (fc1): Linear(in_features=500, out_features=200, bias=True)
  (fc2): Linear(in_features=200, out_features=100, bias=True)
  (fc3): Linear(in_features=100, out_features=50, bias=True)
  (fc4): Linear(in_features=50, out_features=10, bias=True)
)
Model(
  (conv1): Conv2d(3, 10, kernel_size=(3, 3), stride=(1, 1))
  (conv2): Conv2d(10, 15, kernel_size=(3, 3), stride=(1, 1))
  (conv3): Conv2d(15, 20, kernel_size=(3, 3), stride=(1, 1))
  (pool): MaxPool2d(kernel_size=(2, 2), stride=(2, 2), padding=0, dilation=1, ceil_mode=False)
  (fc1): Linear(in_features=500, out_features=200, bias=True)
  (fc2): Linear(in_features=200, out_features=100, bias=True)
  (fc3): Linear(in_features=100, out_features=50, bias=True)
  (fc4): Linear(in_features=50, out_features=10, bias=True)
)
Model(
  (conv1): Conv2d(3, 10, kernel_size=(3, 3), stride=(1, 1))
  (conv2): Conv2d(10, 20, kernel_size=(3, 3), stride=(1, 1))
  (conv3): Conv2d(20, 50, kernel_size=(3, 3), stride=(1, 1))
  (pool): MaxPool2d(kernel_size=(2, 2), stride=(2, 2), padding=0, dilation=1, ceil_mode=False)
  (fc1): Linear(in_features=1250, out_features=200, bias=True)
  (fc2): Linear(in_features=200, out_features=100, bias=True)
  (fc3): Linear(in_features=100, out_features=50, bias=True)
  (fc4): Linear(in_features=50, out_features=10, bias=True)
)
Model(
  (conv1): Conv2d(3, 10, kernel_size=(3, 3), stride=(1, 1))
  (conv2): Conv2d(10, 20, kernel_size=(3, 3), stride=(1, 1))
  (conv3): Conv2d(20, 50, kernel_size=(3, 3), stride=(1, 1))
  (pool): MaxPool2d(kernel_size=(2, 2), stride=(2, 2), padding=0, dilation=1, ceil_mode=False)
  (fc1): Linear(in_features=1250, out_features=200, bias=True)
  (fc2): Linear(in_features=200, out_features=100, bias=True)
  (fc3): Linear(in_features=100, out_features=50, bias=True)
  (fc4): Linear(in_features=50, out_features=10, bias=True)
)
Model(
  (conv1): Conv2d(3, 10, kernel_size=(3, 3), stride=(1, 1))
  (conv2): Conv2d(10, 20, kernel_size=(3, 3), stride=(1, 1))
  (conv3): Conv2d(20, 50, kernel_size=(3, 3), stride=(1, 1))
  (pool): MaxPool2d(kernel_size=(2, 2), stride=(2, 2), padding=0, dilation=1, ceil_mode=False)
  (fc1): Linear(in_features=450, out_features=200, bias=True)
  (fc2): Linear(in_features=200, out_features=100, bias=True)
  (fc3): Linear(in_features=100, out_features=50, bias=True)
  (fc4): Linear(in_features=50, out_features=10, bias=True)
)
Model(
  (conv1): Conv2d(3, 10, kernel_size=(3, 3), stride=(1, 1))
  (conv2): Conv2d(10, 20, kernel_size=(3, 3), stride=(1, 1))
  (conv3): Conv2d(20, 50, kernel_size=(3, 3), stride=(1, 1))
  (pool): MaxPool2d(kernel_size=(2, 2), stride=(2, 2), padding=0, dilation=1, ceil_mode=False)
  (fc1): Linear(in_features=450, out_features=200, bias=True)
  (fc2): Linear(in_features=200, out_features=100, bias=True)
  (fc3): Linear(in_features=100, out_features=50, bias=True)
  (fc4): Linear(in_features=50, out_features=10, bias=True)
)
torch.Size([2, 50, 2, 2])
torch.Size([2, 200])
Model(
  (conv1): Conv2d(3, 10, kernel_size=(3, 3), stride=(1, 1))
  (conv2): Conv2d(10, 20, kernel_size=(3, 3), stride=(1, 1))
  (pool): MaxPool2d(kernel_size=(2, 2), stride=(2, 2), padding=0, dilation=1, ceil_mode=False)
  (fc1): Linear(in_features=450, out_features=200, bias=True)
  (fc2): Linear(in_features=200, out_features=100, bias=True)
  (fc3): Linear(in_features=100, out_features=50, bias=True)
  (fc4): Linear(in_features=50, out_features=10, bias=True)
)
torch.Size([2, 720])
Model(
  (conv1): Conv2d(3, 10, kernel_size=(3, 3), stride=(1, 1))
  (conv2): Conv2d(10, 20, kernel_size=(3, 3), stride=(1, 1))
  (pool): MaxPool2d(kernel_size=(2, 2), stride=(2, 2), padding=0, dilation=1, ceil_mode=False)
  (fc1): Linear(in_features=450, out_features=200, bias=True)
  (fc2): Linear(in_features=200, out_features=100, bias=True)
  (fc3): Linear(in_features=100, out_features=50, bias=True)
  (fc4): Linear(in_features=50, out_features=10, bias=True)
)
torch.Size([2, 20, 6, 6])
torch.Size([2, 720])
Model(
  (conv1): Conv2d(3, 10, kernel_size=(3, 3), stride=(1, 1))
  (conv2): Conv2d(10, 20, kernel_size=(3, 3), stride=(1, 1))
  (pool): MaxPool2d(kernel_size=(2, 2), stride=(2, 2), padding=0, dilation=1, ceil_mode=False)
  (fc1): Linear(in_features=180, out_features=200, bias=True)
  (fc2): Linear(in_features=200, out_features=100, bias=True)
  (fc3): Linear(in_features=100, out_features=50, bias=True)
  (fc4): Linear(in_features=50, out_features=10, bias=True)
)
torch.Size([2, 20, 6, 6])
torch.Size([2, 720])
Model(
  (conv1): Conv2d(3, 10, kernel_size=(5, 5), stride=(1, 1))
  (conv2): Conv2d(10, 20, kernel_size=(5, 5), stride=(1, 1))
  (pool): MaxPool2d(kernel_size=(2, 2), stride=(2, 2), padding=0, dilation=1, ceil_mode=False)
  (fc1): Linear(in_features=500, out_features=200, bias=True)
  (fc2): Linear(in_features=200, out_features=100, bias=True)
  (fc3): Linear(in_features=100, out_features=50, bias=True)
  (fc4): Linear(in_features=50, out_features=10, bias=True)
)
torch.Size([2, 20, 5, 5])
torch.Size([2, 500])
Output shape: torch.Size([2, 10])
Output logits:
[[… Output probabilities:
[[… Model(
  (conv1): Conv2d(3, 10, kernel_size=(5, 5), stride=(1, 1))
  (conv2): Conv2d(10, 25, kernel_size=(5, 5), stride=(1, 1))
  (pool): MaxPool2d(kernel_size=(2, 2), stride=(2, 2), padding=0, dilation=1, ceil_mode=False)
  (fc1): Linear(in_features=625, out_features=200, bias=True)
  (fc2): Linear(in_features=200, out_features=100, bias=True)
  (fc3): Linear(in_features=100, out_features=50, bias=True)
  (fc4): Linear(in_features=50, out_features=10, bias=True)
)
torch.Size([2, 25, 5, 5])
torch.Size([2, 625])
Output shape: torch.Size([2, 10])
Output logits:
[[ … Output probabilities:
[[… 