Step 500     training accuracy: 0.15425
             test accuracy: 0.2034
Step 1000    training accuracy: 0.2408973623853211
             test accuracy: 0.2379
Step 1500    training accuracy: 0.24878125
             test accuracy: 0.2589
Step 2000    training accuracy: 0.2659116972477064
             test accuracy: 0.278
Step 2500    training accuracy: 0.29545454545454547
             test accuracy: 0.2968
Step 3000    training accuracy: 0.307875
             test accuracy: 0.3154
Step 3500    training accuracy: 0.32022849462365593
             test accuracy: 0.3287
Model(
  (conv1): Conv2d(3, 6, kernel_size=(5, 5), stride=(1, 1))
  (conv2): Conv2d(6, 16, kernel_size=(5, 5), stride=(1, 1))
  (pool): MaxPool2d(kernel_size=(2, 2), stride=(2, 2), padding=0, dilation=1, ceil_mode=False)
  (fc1): Linear(in_features=400, out_features=120, bias=True)
  (fc2): Linear(in_features=120, out_features=60, bias=True)
  (fc3): Linear(in_features=60, out_features=10, bias=True)
)
Model(
  (conv1): Conv2d(3, 10, kernel_size=(5, 5), stride=(1, 1))
  (conv2): Conv2d(10, 15, kernel_size=(5, 5), stride=(1, 1))
  (pool): MaxPool2d(kernel_size=(2, 2), stride=(2, 2), padding=0, dilation=1, ceil_mode=False)
  (conv3): Conv2d(25, 25, kernel_size=(5, 5), stride=(1, 1))
  (conv4): Conv2d(25, 25, kernel_size=(5, 5), stride=(1, 1))
  (fc1): Linear(in_features=100, out_features=200, bias=True)
  (fc2): Linear(in_features=200, out_features=100, bias=True)
  (fc3): Linear(in_features=100, out_features=50, bias=True)
  (fc4): Linear(in_features=50, out_features=10, bias=True)
)
Model(
  (conv1): Conv2d(3, 6, kernel_size=(5, 5), stride=(1, 1))
  (conv2): Conv2d(6, 16, kernel_size=(5, 5), stride=(1, 1))
  (pool): MaxPool2d(kernel_size=(2, 2), stride=(2, 2), padding=0, dilation=1, ceil_mode=False)
  (fc1): Linear(in_features=400, out_features=120, bias=True)
  (fc2): Linear(in_features=120, out_features=60, bias=True)
  (fc3): Linear(in_features=60, out_features=10, bias=True)
)
Output shape: torch.Size([2, 10])
Output logits:
[[ … Output probabilities:
[[… 