…
             test accuracy: 0.0999
Step 1500    training accuracy: 0.10159375
             test accuracy: 0.0999
Step 2000    training accuracy: 0.0989822247706422
             test accuracy: 0.0999
Step 2500    training accuracy: 0.09912743506493507
             test accuracy: 0.0999
Step 3000    training accuracy: 0.10084375
             test accuracy: 0.0999
Step 3500    training accuracy: 0.10089045698924731
             test accuracy: 0.0999
Step 4000    training accuracy: 0.09513888888888888
             test accuracy: 0.0999
Step 4500    training accuracy: 0.09978125
             test accuracy: 0.0999
Model(
  (conv1): Conv2d(3, 10, kernel_size=(5, 5), stride=(1, 1))
  (conv2): Conv2d(10, 25, kernel_size=(5, 5), stride=(1, 1))
  (pool): MaxPool2d(kernel_size=(2, 2), stride=(2, 2), padding=0, dilation=1, ceil_mode=False)
  (fc1): Linear(in_features=625, out_features=200, bias=True)
  (fc2): Linear(in_features=200, out_features=100, bias=True)
  (fc3): Linear(in_features=100, out_features=50, bias=True)
  (fc4): Linear(in_features=50, out_features=10, bias=True)
)
Model(
  (conv1): Conv2d(3, 10, kernel_size=(5, 5), stride=(1, 1))
  (conv2): Conv2d(10, 25, kernel_size=(5, 5), stride=(1, 1))
  (pool): MaxPool2d(kernel_size=(2, 2), stride=(2, 2), padding=0, dilation=1, ceil_mode=False)
  (conv3): Conv2d(25, 25, kernel_size=(5, 5), stride=(1, 1))
  (conv4): Conv2d(25, 25, kernel_size=(5, 5), stride=(1, 1))
  (fc1): Linear(in_features=625, out_features=200, bias=True)
  (fc2): Linear(in_features=200, out_features=100, bias=True)
  (fc3): Linear(in_features=100, out_features=50, bias=True)
  (fc4): Linear(in_features=50, out_features=10, bias=True)
)
Model(
  (conv1): Conv2d(3, 10, kernel_size=(5, 5), stride=(1, 1))
  (conv2): Conv2d(10, 25, kernel_size=(5, 5), stride=(1, 1))
  (pool): MaxPool2d(kernel_size=(2, 2), stride=(2, 2), padding=0, dilation=1, ceil_mode=False)
  (conv3): Conv2d(25, 25, kernel_size=(5, 5), stride=(1, 1))
  (conv4): Conv2d(25, 25, kernel_size=(5, 5), stride=(1, 1))
  (fc1): Linear(in_features=625, out_features=200, bias=True)
  (fc2): Linear(in_features=200, out_features=100, bias=True)
  (fc3): Linear(in_features=100, out_features=50, bias=True)
  (fc4): Linear(in_features=50, out_features=10, bias=True)
)
Output shape: torch.Size([2, 25, 12, 12])
Output logits:
[[[[0.         0.         0.65766275 ... 0.67637247 0.7186712
    0.36555907]
   [0.42440388 0.         0.40735674 ... 0.8783588  0.3295544
    0.608362  ]
   [0.12186459 0.18895678 0.         ... 0.43407366 0.49665505
    0.34169665]
   ...
   [0.5027488  0.45438695 0.6405746  ... 0.53690505 0.49253
…
   [0.04065581 0.04093429 0.0342565  ... 0.02913456 0.0426189
    0.03513499]
   [0.04211019 0.03243788 0.03910232 ... 0.05496959 0.03286091
    0.03509525]]

  [[0.03610384 0.03555547 0.03166102 ... 0.03987034 0.02806648
    0.03674599]
   [0.02947943 0.03867303 0.04661346 ... 0.0348431  0.0406474
    0.04957389]
   [0.03024429 0.0296823  0.03108261 ... 0.03153417 0.07005571
    0.0274629 ]
   ...
   [0.03389087 0.03768265 0.03797078 ... 0.03181344 0.02808786
    0.04502329]
   [0.03788691 0.03011495 0.03657699 ... 0.0325728  0.030901
    0.03145902]
   [0.03319294 0.05393863 0.05334701 ... 0.0295492  0.03438392
    0.03148222]]]]
Model(
  (conv1): Conv2d(3, 10, kernel_size=(5, 5), stride=(1, 1))
  (conv2): Conv2d(10, 25, kernel_size=(5, 5), stride=(1, 1))
  (pool): MaxPool2d(kernel_size=(2, 2), stride=(2, 2), padding=0, dilation=1, ceil_mode=False)
  (conv3): Conv2d(25, 25, kernel_size=(5, 5), stride=(1, 1))
  (conv4): Conv2d(25, 25, kernel_size=(5, 5), stride=(1, 1))
  (fc1): Linear(in_features=625, out_features=200, bias=True)
  (fc2): Linear(in_features=200, out_features=100, bias=True)
  (fc3): Linear(in_features=100, out_features=50, bias=True)
  (fc4): Linear(in_features=50, out_features=10, bias=True)
)
Output shape: torch.Size([2, 25, 2, 2])
Output logits:
[[[[0.         0.        ]
   [0.         0.        ]]

  [[0.08543182 0.0809321 ]
   [0.05793626 0.0846325 ]]

  [[0.28431416 0.12979582]
   [0.09469332 0.19560754]]

  [[0.         0.        ]
   [0.         0.        ]]

  [[0.1818481  0.19528277]
   [0.16773501 0.20923166]]

  [[0.         0.        ]
…
  [[0.         0.        ]
   [0.         0.        ]]

  [[0.         0.        ]
   [0.         0.        ]]

  [[0.12690614 0.09056854]
   [0.11740499 0.10929273]]

  [[0.04204527 0.0856713 ]
   [0.07427828 0.0915932 ]]

  [[0.02137879 0.        ]
   [0.         0.01018068]]

  [[0.         0.        ]
   [0.         0.        ]]

  [[0.         0.        ]
   [0.         0.        ]]

  [[0.11576397 0.03143414]
   [0.1149753  0.01230913]]

  [[0.2718401  0.2326532 ]
   [0.21141617 0.19382983]]

  [[0.14679213 0.14127402]
   [0.22676916 0.1575789 ]]]]
Output probabilities:
[[[[… Model(
  (conv1): Conv2d(3, 10, kernel_size=(5, 5), stride=(1, 1))
  (conv2): Conv2d(10, 25, kernel_size=(5, 5), stride=(1, 1))
  (pool): MaxPool2d(kernel_size=(2, 2), stride=(2, 2), padding=0, dilation=1, ceil_mode=False)
  (conv3): Conv2d(25, 25, kernel_size=(5, 5), stride=(1, 1))
  (conv4): Conv2d(25, 25, kernel_size=(5, 5), stride=(1, 1))
  (fc1): Linear(in_features=625, out_features=200, bias=True)
  (fc2): Linear(in_features=200, out_features=100, bias=True)
  (fc3): Linear(in_features=100, out_features=50, bias=True)
  (fc4): Linear(in_features=50, out_features=10, bias=True)
)
Model(
  (conv1): Conv2d(3, 10, kernel_size=(5, 5), stride=(1, 1))
  (conv2): Conv2d(10, 25, kernel_size=(5, 5), stride=(1, 1))
  (pool): MaxPool2d(kernel_size=(2, 2), stride=(2, 2), padding=0, dilation=1, ceil_mode=False)
  (conv3): Conv2d(25, 25, kernel_size=(5, 5), stride=(1, 1))
  (conv4): Conv2d(25, 25, kernel_size=(5, 5), stride=(1, 1))
  (fc1): Linear(in_features=625, out_features=200, bias=True)
  (fc2): Linear(in_features=200, out_features=100, bias=True)
  (fc3): Linear(in_features=100, out_features=50, bias=True)
  (fc4): Linear(in_features=50, out_features=10, bias=True)
)
Model(
  (conv1): Conv2d(3, 10, kernel_size=(5, 5), stride=(1, 1))
  (conv2): Conv2d(10, 25, kernel_size=(5, 5), stride=(1, 1))
  (pool): MaxPool2d(kernel_size=(2, 2), stride=(2, 2), padding=0, dilation=1, ceil_mode=False)
  (conv3): Conv2d(25, 25, kernel_size=(5, 5), stride=(1, 1))
  (conv4): Conv2d(25, 25, kernel_size=(5, 5), stride=(1, 1))
  (fc1): Linear(in_features=625, out_features=200, bias=True)
  (fc2): Linear(in_features=200, out_features=100, bias=True)
  (fc3): Linear(in_features=100, out_features=50, bias=True)
  (fc4): Linear(in_features=50, out_features=10, bias=True)
)
torch.Size([2, 100])
Model(
  (conv1): Conv2d(3, 10, kernel_size=(5, 5), stride=(1, 1))
  (conv2): Conv2d(10, 25, kernel_size=(5, 5), stride=(1, 1))
  (pool): MaxPool2d(kernel_size=(2, 2), stride=(2, 2), padding=0, dilation=1, ceil_mode=False)
  (conv3): Conv2d(25, 25, kernel_size=(5, 5), stride=(1, 1))
  (conv4): Conv2d(25, 25, kernel_size=(5, 5), stride=(1, 1))
  (fc1): Linear(in_features=625, out_features=200, bias=True)
  (fc2): Linear(in_features=200, out_features=100, bias=True)
  (fc3): Linear(in_features=100, out_features=50, bias=True)
  (fc4): Linear(in_features=50, out_features=10, bias=True)
)
torch.Size([2, 25, 2, 2])
torch.Size([2, 100])
Model(
  (conv1): Conv2d(3, 10, kernel_size=(5, 5), stride=(1, 1))
  (conv2): Conv2d(10, 25, kernel_size=(5, 5), stride=(1, 1))
  (pool): MaxPool2d(kernel_size=(2, 2), stride=(2, 2), padding=0, dilation=1, ceil_mode=False)
  (conv3): Conv2d(25, 25, kernel_size=(5, 5), stride=(1, 1))
  (conv4): Conv2d(25, 25, kernel_size=(5, 5), stride=(1, 1))
  (fc1): Linear(in_features=100, out_features=200, bias=True)
  (fc2): Linear(in_features=200, out_features=100, bias=True)
  (fc3): Linear(in_features=100, out_features=50, bias=True)
  (fc4): Linear(in_features=50, out_features=10, bias=True)
)
torch.Size([2, 25, 2, 2])
torch.Size([2, 100])
Output shape: torch.Size([2, 200])
Output logits:
[[0.         0.14642204 0.00515385 0.         0.00638922 0.
  0.         0.         0.0865531  0.04203833 0.00893829 0.03280199
  0.         0.         0.07052148 0.13863477 0.         0.01350922
  0.06462931 0.04406657 0.         0.02404659 0.11846638 0.
  0.01342169 0.         0.         0.10090162 0.         0.03558427
…
  0.04027569 0.         0.         0.         0.07403799 0.03951865
  0.         0.04399252 0.         0.00879748 0.         0.
  0.         0.         0.         0.         0.03968036 0.
  0.         0.         0.11050999 0.05893586 0.         0.02105665
  0.         0.0420114  0.10835453 0.08569898 0.         0.12004337
  0.04015919 0.04979691 0.06945591 0.01016227 0.0897342  0.0037617
  0.03446808 0.         0.02192101 0.04498944 0.11405447 0.
  0.         0.         0.01516314 0.05732361 0.         0.12893769
  0.         0.         0.         0.03733358 0.         0.00068368
  0.0073913  0.        ]]
Output probabilities:
[[… Model(
  (conv1): Conv2d(3, 10, kernel_size=(5, 5), stride=(1, 1))
  (conv2): Conv2d(10, 25, kernel_size=(5, 5), stride=(1, 1))
  (pool): MaxPool2d(kernel_size=(2, 2), stride=(2, 2), padding=0, dilation=1, ceil_mode=False)
  (conv3): Conv2d(25, 25, kernel_size=(5, 5), stride=(1, 1))
  (conv4): Conv2d(25, 25, kernel_size=(5, 5), stride=(1, 1))
  (fc1): Linear(in_features=100, out_features=200, bias=True)
  (fc2): Linear(in_features=200, out_features=100, bias=True)
  (fc3): Linear(in_features=100, out_features=50, bias=True)
  (fc4): Linear(in_features=50, out_features=10, bias=True)
)
Output shape: torch.Size([2, 200])
Output logits:
[[… Output probabilities:
[[… 