…
    deer        airplane
    frog          frog
     dog          horse
    frog          frog
  airplane      airplane
    truck         truck
     cat           cat
    truck         truck
    horse         horse
    frog          frog
    truck       airplane
    ship          ship
  airplane        frog
     cat           cat
    ship          ship
    ship          ship
    horse         horse
    horse          dog
    deer           dog
    frog           dog
    horse         horse
     cat           dog
    frog          frog
     cat          deer
Test accuracy: 0.660
Model(
  (conv1): Conv2d(3, 10, kernel_size=(5, 5), stride=(1, 1))
  (conv2): Conv2d(10, 15, kernel_size=(5, 5), stride=(1, 1))
  (pool): MaxPool2d(kernel_size=(2, 2), stride=(2, 2), padding=0, dilation=1, ceil_mode=False)
  (conv3): Conv2d(25, 25, kernel_size=(5, 5), stride=(1, 1))
  (conv4): Conv2d(25, 25, kernel_size=(5, 5), stride=(1, 1))
  (fc1): Linear(in_features=100, out_features=200, bias=True)
  (fc2): Linear(in_features=200, out_features=100, bias=True)
  (fc3): Linear(in_features=100, out_features=50, bias=True)
  (fc4): Linear(in_features=50, out_features=10, bias=True)
)
Model(
  (conv1): Conv2d(3, 10, kernel_size=(5, 5), stride=(1, 1))
  (conv2): Conv2d(10, 25, kernel_size=(5, 5), stride=(1, 1))
  (pool): MaxPool2d(kernel_size=(2, 2), stride=(2, 2), padding=0, dilation=1, ceil_mode=False)
  (conv3): Conv2d(25, 25, kernel_size=(5, 5), stride=(1, 1))
  (conv4): Conv2d(25, 25, kernel_size=(5, 5), stride=(1, 1))
  (fc1): Linear(in_features=100, out_features=200, bias=True)
  (fc2): Linear(in_features=200, out_features=100, bias=True)
  (fc3): Linear(in_features=100, out_features=50, bias=True)
  (fc4): Linear(in_features=50, out_features=10, bias=True)
)
Output shape: torch.Size([2, 10])
Output logits:
[[ … Output probabilities:
[[… Model(
  (conv1): Conv2d(3, 10, kernel_size=(5, 5), stride=(1, 1))
  (conv2): Conv2d(10, 25, kernel_size=(5, 5), stride=(1, 1))
  (pool): MaxPool2d(kernel_size=(2, 2), stride=(2, 2), padding=0, dilation=1, ceil_mode=False)
  (conv3): Conv2d(25, 25, kernel_size=(5, 5), stride=(1, 1))
  (conv4): Conv2d(25, 25, kernel_size=(5, 5), stride=(1, 1))
  (fc1): Linear(in_features=100, out_features=200, bias=True)
  (fc2): Linear(in_features=200, out_features=100, bias=True)
  (fc3): Linear(in_features=100, out_features=50, bias=True)
  (fc4): Linear(in_features=50, out_features=10, bias=True)
)
Output shape: torch.Size([2, 10])
Output logits:
[[ … Output probabilities:
[[… 